…
WARNING:tensorflow:From /opt/packages/TensorFlow/anaconda/TensorFlowEnv_1.0/lib/python3.6/site-packages/keras/backend/tensorflow_backend.py:1299: calling reduce_mean (from tensorflow.python.ops.math_ops) with keep_dims is deprecated and will be removed in a future version.
Instructions for updating:
keep_dims is deprecated, use keepdims instead
2018-05-05 02:11:56.976502: I tensorflow/core/platform/cpu_feature_guard.cc:140] Your CPU supports instructions that this TensorFlow binary was not compiled to use: AVX2 FMA
_________________________________________________________________
Layer (type)                 Output Shape              Param #   
=================================================================
conv2d_1 (Conv2D)            (None, 126, 126, 32)      320       
_________________________________________________________________
max_pooling2d_1 (MaxPooling2 (None, 63, 63, 32)        0         
_________________________________________________________________
conv2d_2 (Conv2D)            (None, 61, 61, 32)        9248      
_________________________________________________________________
zero_padding2d_1 (ZeroPaddin (None, 63, 63, 32)        0         
_________________________________________________________________
conv2d_3 (Conv2D)            (None, 61, 61, 32)        9248      
_________________________________________________________________
max_pooling2d_2 (MaxPooling2 (None, 30, 30, 32)        0         
_________________________________________________________________
conv2d_4 (Conv2D)            (None, 28, 28, 64)        18496     
_________________________________________________________________
max_pooling2d_3 (MaxPooling2 (None, 14, 14, 64)        0         
_________________________________________________________________
conv2d_5 (Conv2D)            (None, 12, 12, 64)        36928     
_________________________________________________________________
max_pooling2d_4 (MaxPooling2 (None, 6, 6, 64)          0         
_________________________________________________________________
flatten_1 (Flatten)          (None, 2304)              0         
_________________________________________________________________
dropout_1 (Dropout)          (None, 2304)              0         
_________________________________________________________________
dense_1 (Dense)              (None, 64)                147520    
_________________________________________________________________
dense_2 (Dense)              (None, 1)                 65        
=================================================================
Total params: 221,825
Trainable params: 221,825
Non-trainable params: 0
_________________________________________________________________
None
Data: (28360, 128, 128, 1), Target: (28360,), Test: (7090, 128, 128, 1)
Data type: float64, int64, float64
Train on 25524 samples, validate on 2836 samples
Epoch 1/15
  100/25524 [.
…
