…
WARNING:tensorflow:From /opt/packages/TensorFlow/anaconda/TensorFlowEnv_1.0/lib/python3.6/site-packages/keras/backend/tensorflow_backend.py:1299: calling reduce_mean (from tensorflow.python.ops.math_ops) with keep_dims is deprecated and will be removed in a future version.
Instructions for updating:
keep_dims is deprecated, use keepdims instead
2018-05-07 19:06:19.211296: I tensorflow/core/platform/cpu_feature_guard.cc:140] Your CPU supports instructions that this TensorFlow binary was not compiled to use: AVX2 FMA
_________________________________________________________________
Layer (type)                 Output Shape              Param #   
=================================================================
conv2d_1 (Conv2D)            (None, 46, 46, 32)        320       
_________________________________________________________________
max_pooling2d_1 (MaxPooling2 (None, 23, 23, 32)        0         
_________________________________________________________________
conv2d_2 (Conv2D)            (None, 21, 21, 32)        9248      
_________________________________________________________________
zero_padding2d_1 (ZeroPaddin (None, 23, 23, 32)        0         
_________________________________________________________________
conv2d_3 (Conv2D)            (None, 21, 21, 32)        9248      
_________________________________________________________________
max_pooling2d_2 (MaxPooling2 (None, 10, 10, 32)        0         
_________________________________________________________________
dropout_1 (Dropout)          (None, 10, 10, 32)        0         
_________________________________________________________________
conv2d_4 (Conv2D)            (None, 8, 8, 64)          18496     
_________________________________________________________________
zero_padding2d_2 (ZeroPaddin (None, 10, 10, 64)        0         
_________________________________________________________________
conv2d_5 (Conv2D)            (None, 8, 8, 64)          36928     
_________________________________________________________________
max_pooling2d_3 (MaxPooling2 (None, 4, 4, 64)          0         
_________________________________________________________________
dropout_2 (Dropout)          (None, 4, 4, 64)          0         
_________________________________________________________________
conv2d_6 (Conv2D)            (None, 2, 2, 64)          36928     
_________________________________________________________________
zero_padding2d_3 (ZeroPaddin (None, 4, 4, 64)          0         
_________________________________________________________________
conv2d_7 (Conv2D)            (None, 2, 2, 64)          36928     
_________________________________________________________________
max_pooling2d_4 (MaxPooling2 (None, 1, 1, 64)          0         
_________________________________________________________________
flatten_1 (Flatten)          (None, 64)                0         
_________________________________________________________________
dropout_3 (Dropout)          (None, 64)                0         
_________________________________________________________________
dense_1 (Dense)              (None, 64)                4160      
_________________________________________________________________
dense_2 (Dense)              (None, 3)                 195       
=================================================================
Total params: 152,451
Trainable params: 152,451
Non-trainable params: 0
_________________________________________________________________
None
1/9, 11.11%2/9, 22.22%3/9, 33.33%4/9, 44.44%5/9, 55.56%6/9, 66.67%7/9, 77.78%8/9, 88.89%9/9, 100.00%
Data: (16166, 48, 48, 1), Target: (16166, 1), Test: (3965, 48, 48, 1)
Data type: int64, int64, int64
…
